.config/google-chrome/Default/optimization_guide_prediction_model_downloads/1ce77376-ffaa-49d4-93c4-d56b5cebd25d/model.tflite (tflite, 8088 bytes, 3 tensors)

prediction_model/logits/MatMul f4 [1, 64]
0	0x3e9f619c	0.31129158
1	0xbf5e2e40	-0.8678932
2	0x3f1781c4	0.5918238
3	0x3e97d090	0.29651308
4	0x3f6948f2	0.9112693
5	0x3eb6e647	0.35722563
6	0x3e879932	0.26484066
7	0x3f36912e	0.71315277
8	0x3e6d1cf6	0.23155579
9	0xbf8ce512	-1.1007407
10	0x3eaf407d	0.34228888
11	0xbe088185	-0.13330658
12	0xbe41552d	-0.18880148
13	0xbe829495	-0.25503984
14	0xbe355494	-0.17708045
15	0x3f033b8c	0.51262736
16	0xbe417601	-0.18892671
17	0xbeb6c39f	-0.35696122
18	0xbed00dcc	-0.40635526
19	0x3f116fad	0.5681103
20	0xbeab272b	-0.3342832
21	0x3e9e451a	0.30912095
22	0xbeab4b5c	-0.33455932
23	0x3ebc9ab1	0.3683677
24	0x3f301b32	0.68791497
25	0xbdd25211	-0.10269559
26	0xbe13cd99	-0.14433898
27	0xbec856ed	-0.3912882
28	0xbf6fd7b3	-0.93688506
29	0x3eda69e5	0.42658916
30	0xbe09a186	-0.13440523
31	0xbd8e5ee2	-0.06951691
32	0x3ee5cc4f	0.44882438
33	0xbfc698cf	-1.5515383
34	0x3ebb5897	0.36591026
35	0xbe9415c1	-0.28922847
36	0xbedddfdf	-0.43334863
37	0xbddeb34b	-0.10874041
38	0x3eab89ee	0.3350367
39	0x3e9935a1	0.29923728
40	0x3f1e68bd	0.6187857
41	0xbec5f0f5	-0.38660398
42	0x3eaace89	0.333607
43	0xbe605c94	-0.21910316
44	0xbe8cfdae	-0.27537292
45	0x3eb5f54c	0.3553871
46	0x3eabb3ce	0.33535618
47	0xbf13bbc4	-0.5770838
48	0x3ee1a64e	0.44072193
49	0xbea0242e	-0.31277603
50	0x3f04de52	0.51901734
51	0x3f340861	0.70325285
52	0xbdca0d74	-0.09865847
53	0x3e75d779	0.24007978
54	0xbea3df3c	-0.32006252
55	0xbdff2e6f	-0.124600284
56	0xbf8e734d	-1.1128937
57	0xbe87d375	-0.26528516
58	0xbdcfaa87	-0.101399474
59	0x3f94d08e	1.1626146
60	0xbfa28bea	-1.2698948
61	0xbeb1b525	-0.34708515
62	0xbf20d223	-0.62820643
63	0xbe9da8ce	-0.3079285

prediction_model/dense/BiasAdd/ReadVariableOp f4 [64]
0	0xbea164f2	-0.31522328
1	0xbec30acc	-0.38094175
2	0xbe3153b0	-0.1731708
3	0xbe83ef1b	-0.2576836
4	0xbe86490e	-0.2622761
5	0xbe74f33c	-0.23920912
6	0x3e0f66bc	0.14004034
7	0xbf0facbb	-0.5612294
8	0xbeb46d54	-0.3523966
9	0x3eac0b4e	0.33602375
10	0xbd4374d9	-0.047718856
11	0xbd86bbeb	-0.06578811
12	0xbe60e166	-0.21960983
13	0xbeb86954	-0.3601786
14	0xbd4dd8e2	-0.050255664
15	0x3e6a2c7f	0.22868536
16	0xbeee7867	-0.46576235
17	0xbf00e2b5	-0.5034593
18	0xbe85fd35	-0.26169744
19	0xbf28aefe	-0.65892017
20	0xbeef3201	-0.46717837
21	0xbbea931e	-0.007158651
22	0xbf08bb70	-0.53411007
23	0x3e3f26cd	0.18667145
24	0xbe8bdefe	-0.27318567
25	0xbe8b4324	-0.27199662
26	0xbe8666d4	-0.26250327
27	0xbeda317e	-0.42615885
28	0xbed8a168	-0.42310643
29	0x3d571e81	0.052519325
30	0xbed9905e	-0.42492956
31	0xbef6f12e	-0.4823088
32	0x3c9237ce	0.017848875
33	0x3eae0697	0.33989403
34	0xbe3f72f2	-0.18696192
35	0xbedb4319	-0.4282463
36	0xbee19f59	-0.44066885
37	0xbf145748	-0.5794568
38	0xbda47649	-0.080303736
39	0x3e2079e0	0.15671492
40	0x3db677dc	0.0890958
41	0xbe558ffb	-0.20855705
42	0xbe827c64	-0.25485528
43	0xbf3ff103	-0.7497713
44	0xbeb5caad	-0.35506192
45	0x3ea1b961	0.31586745
46	0xbe8f86d3	-0.2803255
47	0xbee3de20	-0.44505405
48	0x3e43ab2a	0.19108263
49	0xbe5ef024	-0.21771294
50	0x3cf4e314	0.029893436
51	0xbe76f7f0	-0.24118018
52	0xbeb00a4a	-0.3438285
53	0xbe8f115b	-0.2794293
54	0xbf002b61	-0.5006619
55	0xbf0aaea7	-0.5417275
56	0xbf089cb9	-0.5336414
57	0xbeeb7cbe	-0.45993608
58	0xbf1dcf84	-0.6164477
59	0xbf2a466a	-0.66513693
60	0x3ed621df	0.41822717
61	0xbf165652	-0.58725464
62	0x3e1e086b	0.15432899
63	0xbeae6bc6	-0.340666

prediction_model/dense/MatMul i1 [64, 24] scale=0.055961825 zero_point=0
0	0xf3	-0.7275037
1	0xfb	-0.27980912
2	0xfc	-0.2238473
3	0x00	0.0
4	0xfe	-0.11192365
5	0xfa	-0.33577096
6	0x07	0.39173278
7	0xfd	-0.16788548
8	0xfc	-0.2238473
9	0xfb	-0.27980912
10	0x0f	0.83942735
11	0xf1	-0.83942735
12	0xe7	-1.3990456
13	0xff	-0.055961825
14	0xf5	-0.6155801
15	0x0e	0.78346556
16	0x0a	0.55961823
17	0x01	0.055961825
18	0xff	-0.055961825
19	0xf6	-0.55961823
20	0x08	0.4476946
21	0xf8	-0.4476946
22	0x00	0.0
23	0x05	0.27980912
24	0x00	0.0
25	0x05	0.27980912
26	0x09	0.50365645
27	0xf7	-0.50365645
28	0x06	0.33577096
29	0xd4	-2.4623203
30	0xfc	-0.2238473
31	0xfa	-0.33577096
32	0xe6	-1.4550074
33	0xcc	-2.9100149
34	0x00	0.0
35	0x0a	0.55961823
36	0xf4	-0.6715419
37	0xff	-0.055961825
38	0xfc	-0.2238473
39	0x01	0.055961825
40	0xfe	-0.11192365
41	0xff	-0.055961825
42	0xfe	-0.11192365
43	0xfe	-0.11192365
44	0x04	0.2238473
45	0xfe	-0.11192365
46	0xe5	-1.5109693
47	0x00	0.0
48	0x06	0.33577096
49	0xfe	-0.11192365
50	0xfa	-0.33577096
51	0x04	0.2238473
52	0x05	0.27980912
53	0xf4	-0.6715419
54	0xf7	-0.50365645
55	0xe9	-1.287122
56	0x02	0.11192365
57	0xef	-0.95135105
58	0x09	0.50365645
59	0x01	0.055961825
60	0xf6	-0.55961823
61	0xfc	-0.2238473
62	0xfc	-0.2238473
63	0x06	0.33577096
64	0xf8	-0.4476946
65	0xca	-3.0219386
66	0x03	0.16788548
67	0xc6	-3.245786
68	0xf9	-0.39173278
69	0x02	0.11192365
70	0xf8	-0.4476946
71	0xff	-0.055961825
72	0xf7	-0.50365645
73	0x01	0.055961825
74	0xfe	-0.11192365
75	0x0b	0.6155801
76	0x07	0.39173278
77	0x01	0.055961825
78	0x02	0.11192365
79	0xf9	-0.39173278
80	0xfd	-0.16788548
81	0xef	-0.95135105
82	0xf5	-0.6155801
83	0x0c	0.6715419
84	0xee	-1.0073129
85	0xfe	-0.11192365
86	0x00	0.0
87	0xfe	-0.11192365
88	0xf6	-0.55961823
89	0x08	0.4476946
90	0xfc	-0.2238473
91	0x01	0.055961825
92	0xf6	-0.55961823
93	0xfb	-0.27980912
94	0x02	0.11192365
95	0x07	0.39173278
96	0x0b	0.6155801
97	0x01	0.055961825
98	0xfe	-0.11192365
99	0x02	0.11192365
100	0x01	0.055961825
101	0xfc	-0.2238473
102	0x03	0.16788548
103	0xfc	-0.2238473
104	0x01	0.055961825
105	0x00	0.0
106	0x02	0.11192365
107	0xfc	-0.2238473
108	0xfd	-0.16788548
109	0xfd	-0.16788548
110	0x03	0.16788548
111	0x0c	0.6715419
112	0xf4	-0.6715419
113	0x00	0.0
114	0x00	0.0
115	0x81	-7.107152
116	0xfa	-0.33577096
117	0x00	0.0
118	0x10	0.8953892
119	0x01	0.055961825
120	0xeb	-1.1751983
121	0x07	0.39173278
122	0xff	-0.055961825
123	0xf9	-0.39173278
124	0x06	0.33577096
125	0x06	0.33577096
126	0xfb	-0.27980912
127	0x09	0.50365645
128	0x07	0.39173278
129	0xf8	-0.4476946
130	0x06	0.33577096
131	0x11	0.95135105
132	0x06	0.33577096
133	0xf8	-0.4476946
134	0x04	0.2238473
135	0xfc	-0.2238473
136	0xf7	-0.50365645
137	0xfe	-0.11192365
138	0x05	0.27980912
139	0x11	0.95135105
140	0xfa	-0.33577096
141	0x00	0.0
142	0xf5	-0.6155801
143	0xfc	-0.2238473
144	0xf6	-0.55961823
145	0xf4	-0.6715419
146	0xfd	-0.16788548
147	0xff	-0.055961825
148	0x00	0.0
149	0xf3	-0.7275037
150	0xf9	-0.39173278
151	0xff	-0.055961825
152	0xf8	-0.4476946
153	0xde	-1.9027021
154	0x06	0.33577096
155	0x05	0.27980912
156	0xff	-0.055961825
157	0x00	0.0
158	0x06	0.33577096
159	0x03	0.16788548
160	0x02	0.11192365
161	0xf9	-0.39173278
162	0xd6	-2.3503966
163	0x0a	0.55961823
164	0xfd	-0.16788548
165	0xff	-0.055961825
166	0x06	0.33577096
167	0x0d	0.7275037
168	0x02	0.11192365
169	0x05	0.27980912
170	0xfa	-0.33577096
171	0xf9	-0.39173278
172	0x03	0.16788548
173	0xe0	-1.7907784
174	0xf2	-0.78346556
175	0xf2	-0.78346556
176	0xf5	-0.6155801
177	0xf5	-0.6155801
178	0x01	0.055961825
179	0xed	-1.0632746
180	0xf2	-0.78346556
181	0xfa	-0.33577096
182	0xf0	-0.8953892
183	0x02	0.11192365
184	0x0d	0.7275037
185	0xfb	-0.27980912
186	0xfe	-0.11192365
187	0xef	-0.95135105
188	0x0d	0.7275037
189	0xff	-0.055961825
190	0x05	0.27980912
191	0x04	0.2238473
192	0xf1	-0.83942735
193	0x02	0.11192365
194	0x01	0.055961825
195	0x01	0.055961825
196	0x01	0.055961825
197	0xfe	-0.11192365
198	0xfd	-0.16788548
199	0xfe	-0.11192365
200	0x09	0.50365645
201	0x04	0.2238473
202	0x18	1.3430839
203	0xfb	-0.27980912
204	0xe4	-1.5669311
205	0xfd	-0.16788548
206	0xfd	-0.16788548
207	0x02	0.11192365
208	0x05	0.27980912
209	0x01	0.055961825
210	0xf8	-0.4476946
211	0x08	0.4476946
212	0x06	0.33577096
213	0xf9	-0.39173278
214	0x07	0.39173278
215	0x06	0.33577096
216	0x05	0.27980912
217	0xfa	-0.33577096
218	0x03	0.16788548
219	0x02	0.11192365
220	0xfe	-0.11192365
221	0xf7	-0.50365645
222	0x07	0.39173278
223	0x04	0.2238473
224	0xfb	-0.27980912
225	0xff	-0.055961825
226	0x02	0.11192365
227	0x07	0.39173278
228	0x06	0.33577096
229	0x03	0.16788548
230	0x05	0.27980912
231	0x03	0.16788548
232	0xff	-0.055961825
233	0xfb	-0.27980912
234	0x07	0.39173278
235	0x07	0.39173278
236	0x00	0.0
237	0xfa	-0.33577096
238	0x01	0.055961825
239	0xd3	-2.5182822
240	0xf1	-0.83942735
241	0xef	-0.95135105
242	0x03	0.16788548
243	0x00	0.0
244	0x01	0.055961825
245	0xfb	-0.27980912
246	0x06	0.33577096
247	0x03	0.16788548
248	0x0a	0.55961823
249	0xed	-1.0632746
250	0x0a	0.55961823
251	0xfd	-0.16788548
252	0xf5	-0.6155801
253	0xff	-0.055961825
254	0xfd	-0.16788548
255	0x03	0.16788548
